Model: "sequential"
_________________________________________________________________
 Layer (type)                Output Shape              Param #   
=================================================================
 conv2d (Conv2D)             (None, 28, 28, 32)        320       
                                                                 
 max_pooling2d (MaxPooling2D  (None, 14, 14, 32)       0         
 )                                                               
                                                                 
 conv2d_1 (Conv2D)           (None, 14, 14, 64)        18496     
                                                                 
 max_pooling2d_1 (MaxPooling  (None, 7, 7, 64)         0         
 2D)                                                             
                                                                 
 flatten (Flatten)           (None, 3136)              0         
                                                                 
 dense (Dense)               (None, 128)               401536    
                                                                 
 dense_1 (Dense)             (None, 10)                1290      
                                                                 
=================================================================
Total params: 421,642
Trainable params: 421,642
Non-trainable params: 0
_________________________________________________________________
Loss: 1.5692254304885864
Accuracy: 0.9103999733924866

Confusion Matrix: 
[[863   0  13  27   5   2  83   1   5   1]
…
